notebooks/model-0.pt (torch_old, 93653 bytes, 4 tensors)

weight f4 [1433, 16]
-0.11229664 0.06603285 0.048299517 0.024673909 -0.15862314 0.13966808 -2.3227e-12 -0.16607954
0.061003003 0.085335776 -0.02300636 0.015991263 0.14576606 -0.19614731 0.037158035 -0.0574135
-0.022864025 -0.058278825 -0.14477436 0.1599544 0.13680653 -0.06383912 6.971768e-13 -0.06104323
-0.059040565 0.04815415 -0.16647185 -0.078483365 -0.005787037 0.08995414 0.010352419 -0.0081862
0.30758646 -0.16654739 0.055947516 -0.19642586 -0.42244804 0.39301208 -1.2558994e-12 0.13278466
0.2424356 -0.19766116 0.09922181 0.14971586 -0.11596624 -0.13344361 -0.14380628 0.31241572
0.08153401 0.008272755 0.01834154 0.19252063 0.4233632 -0.22536936 -2.2351626e-12 -0.17042021
-0.097374946 0.2531197 -0.0052276864 0.29231387 -0.06728314 0.12688734 -0.23633885 -0.38497764
1.0552058 -0.42256922 -0.6080353 1.1289479 -0.9781893 1.3552325 -4.210393e-12 -0.5463352
-0.53898686 -0.5695216 -0.73742336 -0.6189347 0.30416396 -0.96483 1.0983365 1.0652331
-0.056707397 0.0116241835 0.0031092586 0.03607204 0.110435836 -0.04417464 6.87943e-13 0.015210426
-0.057762086 -0.07185091 0.0024056798 -0.063571155 0.022651989 0.04331507 0.061481148 -0.019580854
-0.09448917 -0.031045651 -0.036494106 -0.0988694 -0.10875688 -0.041554756 -7.414135e-12 0.11499871
-0.011719514 0.09921802 -0.0411732 -0.05305963 -0.042481583 0.13681792 0.15743895 0.10819062
0.00086875004 -0.05352543 -0.14444068 0.012386942 0.08861313 -0.18877472 -8.2137006e-12 -0.051696654
-0.22261943 0.36323038 -0.20490275 0.07200983 -0.06719815 0.1376141 0.09349575 -0.1375946
-0.20969139 0.15611926 0.03911063 0.15438907 0.13827997 -0.16039746 -6.3094217e-12 -0.24047607
-0.36415425 -0.45844072 0.012545658 -0.4830022 0.2923038 0.119948834 0.4298901 -0.026727377
0.010603741 0.010775986 0.024247324 -0.035061732 -0.044515308 -0.011199244 8.047168e-13 0.011660795
-0.03701501 -0.07486163 0.048137847 -0.039798915 0.01499158 0.041123126 0.022431586 0.0140079465
-0.081631206 0.05613613 -0.023734592 0.10406364 0.23573236 -0.21538186 -7.944397e-13 -0.04030519
-0.29960948 -0.14751945 0.017358787 -0.19580159 0.065462835 0.17664607 0.14934774 -0.1121254
0.013641251 0.044741563 0.0069510434 -0.012262905 -0.07684132 0.13234074 4.035411e-12 -0.019499706
0.041869596 0.0034834757 0.015728584 0.0145047195 0.048304282 -0.12270776 -0.0058478285 0.009499044
-0.1235733 0.0529925 0.01122046 0.016109575 -0.034062993 0.15333533 9.191199e-13 0.11151995
0.105778135 -0.064202726 -0.0034619153 -0.18390037 0.083046764 -0.115435876 0.095323876 0.16689016
-0.16888407 0.062910244 0.016478937 0.040153667 0.17659532 -0.2256946 7.2612003e-12 -0.03484025
-0.13556188 0.014817627 -0.022777185 -0.09069254 0.079570875 0.2339668 0.015478043 -0.11069496
0.024020948 -0.0108179925 -0.019443821 -0.0037566593 -0.0017107916 0.040910605 1.4160464e-12 -0.04425548
0.031175397 0.07793027 0.00068604643 0.11944799 -0.016811637 -0.089242294 -0.06689432 -0.06283631
0.015181579 0.0020494896 0.011292575 -0.028156893 -0.025300626 0.009210667 4.4023097e-13 0.022691622
0.050058413 0.00012335356 0.02565965 0.0436039 -0.009715114 0.030694693 -0.034241505 -0.0025327664
00000000: c8fb e5bd 3b3c 873d b7d5 453d f020 ca3c
00000010: 1b6e 22be 2605 0f3e 0b72 23ac c110 2abe
00000020: 49de 793d 86c4 ae3d d577 bcbc 1c00 833c
00000030: b343 153e d7da 48be 0633 183d 6b2a 6bbd
00000040: 564d bbbc c7b5 6ebd bb3f 14be 16cb 233e
00000050: 0317 0c3e 16be 82bd e23c 442b 7708 7abd
00000060: 85d4 71bd 493d 453d 9977 2abe e3bb a0bd
00000070: 2fa1 bdbb e039 b83d 319d 293c 691f 06bc
00000080: f97b 9d3e 668b 2abe 3929 653d dc23 49be
00000090: 1c4b d8be e138 c93e 8bc0 b0ab b4f8 073e
000000a0: 0a41 783e b067 4abe ce34 cb3d 1d4f 193e
000000b0: b57f edbd 71a5 08be f441 13be f4f4 9f3e
000000c0: 4efb a63d 738a 073c ff40 963c 2124 453e
000000d0: 10c3 d83e 3ac7 66be 1c49 1dac a382 2ebe
000000e0: 846c c7bd e898 813e 034d abbb 2aaa 953e
000000f0: becb 89bd c1ee 013e d002 72be ca1b c5be
00000100: fc10 873f fe5a d8be 34a8 1bbf 5d81 903f
00000110: 9d6a 7abf 4278 ad3f d923 94ac a0dc 0bbf
00000120: 0bfb 09bf 2bcc 11bf c7c7 3cbf 8172 1ebf
00000130: 61bb 9b3e 19ff 76bf 4a96 8c3f 8f59 883f
00000140: 0446 68bd 5c73 3e3c b4c4 4b3b 47c0 133d
00000150: 2f2c e23d 78f0 34bd 84a3 412b 2735 793c
00000160: f097 6cbd 9226 93bd 9ca8 1d3b 9831 82bd
00000170: aa90 b93c 256b 313d a8d3 7b3d 0768 a0bc
00000180: 8a83 c1bd 7353 febc d87a 15bd 0a7c cabd
00000190: edbb debd 5235 2abd 4c6e 02ad 7284 eb3d
000001a0: 3403 40bc d132 cb3d 3ba5 28bd 0e55 59bd
000001b0: 2b01 2ebd ff19 0c3e ad37 213e 0b93 dd3d
000001c0: d4bc 633a 7b3d 5bbd 42e8 13be 9af2 4a3c
000001d0: cd7a b53d 294e 41be 387f 10ad dfbf 53bd
000001e0: 59f6 63be 55f9 b93e 07d2 51be e479 933d
000001f0: 2f9f 89bd b6ea 0c3e b37a bf3d 99e5 0cbe
00000200: 57b9 56be badd 1f3e 7832 203d 2b18 1e3e
00000210: 4499 0d3e 3b3f 24be 38fe ddac 5c3f 76be
00000220: 6d72 babe beb8 eabe 4e8c 4d3c 104c f7be
00000230: d8a8 953e bca7 f53d 8e1a dc3e 5ff3 dabc
00000240: 50bb 2d3c c38d 303c 53a2 c63c e49c 0fbd
00000250: af55 36bd 097d 37bc f581 622b eb0c 3f3c
00000260: 0d9d 17bd 0e51 99bd 312c 453d 3004 23bd
00000270: 3e9f 753c b970 283d 72c2 b73c 9681 653c
00000280: 432e a7bd 00ef 653d 0c6f c2bc 511f d53d
00000290: d363 713e 108d 5cbe 6a9d 5fab 0e17 25bd
000002a0: 6a66 99be 570f 17be 0434 8e3c 3680 48be
000002b0: 6111 863d b5e2 343e 9dee 183e 00a2 e5bd
000002c0: 8e7f 5f3c ee42 373d 94c5 e33b 5aea 48bc
000002d0: fb5e 9dbd 5584 073e c0fb 8d2c d9bd 9fbc
000002e0: 747f 2b3d 064b 643b 3bd9 803c 34a5 6d3c
000002f0: b6da 453d 354e fbbd 249f bfbb e1a1 1b3c
00000300: 0014 fdbd aa0e 593d 05d6 373c 3af8 833c
00000310: a385 0bbd f003 1d3e c95a 812b 9264 e43d
00000320: 35a2 d83d b87c 83bd 4de1 62bb 6150 3cbe
00000330: 6c14 aa3d a569 ecbd 2a39 c33d 41e5 2a3e
00000340: f2ef 2cbe 16d7 803d d6fe 863c 2c78 243d
00000350: 67d5 343e 7c1c 67be 147b ff2c a6b4 0ebd
00000360: bcd0 0abe a2c5 723c 3897 babc 03bd b9bd
00000370: 0ef6 a23d fe94 6f3e 9e97 7d3c 0ab4 e2bd
00000380: 94c7 c43c f33d 31bc a648 9fbc 4932 76bb
00000390: a43c e0ba e191 273d 734a c72b 3c45 35bd
000003a0: 8c63 ff3c e899 9f3d ccd7 333a 26a1 f43d
000003b0: 8fb8 89bc aac4 b6bd e4ff 88bd 53b0 80bd
000003c0: 28bc 783c bb50 063b 7e04 393c 49a9 e6bc
000003d0: 4243 cfbc 56e8 163c f8d3 f72a c8e3 b93c
000003e0: 0d0a 4d3d 7858 0139 3034 d23c 019a 323d
000003f0: 242c 1fbc 7073 fb3c d240 0cbd c5fc 25bb

bias f4 [16]
0.08831241 0.16021398 0.17909002 0.106268294 0.09418999 0.16573364 -0.00023019465 0.078815185
0.14409626 0.122075245 0.18167904 0.10990412 0.18039475 0.113326535 0.11576934 0.118435904
00000000: 23dd b43d 220f 243e 6063 373e 31a3 d93d
00000010: aee6 c03d 14b6 293e 6860 71b9 db69 a13d
00000020: f88d 133e 9602 fa3d 120a 3a3e 6915 e13d
00000030: 67b9 383e be17 e83d 7a18 ed3d 868e f23d

weight f4 [16, 7]
2.5627775 -2.5031087 -2.482695 2.5080678 2.3554127 -1.2426937 -2.6721702 -1.8961726
2.2969854 -1.340724 -2.4984496 -2.0550156 2.4407845 -1.6599929 -1.6478738 1.2116427
-1.29762 1.4543866 -2.2316606 1.8901478 -1.4615204 2.4925895 -0.1960212 -2.4995115
-2.3059454 2.0695264 -2.5378435 1.7644861 -2.523253 2.6830552 -2.2582965 -2.0799344
2.8281803 -2.5971715 2.210587 2.5168748 -2.4802034 -2.0279553 0.1888833 -2.172334
2.570653 1.2952427 5.6155722e-12 -2.336509e-11 -3.4352599e-12 -4.608413e-12 -4.7316903e-12 -2.1841376e-11
-6.32017e-12 -2.4010267 -1.1794902 2.7129433 2.774496 -2.667819 -2.8026378 2.467964
-1.8127279 -2.683712 -2.3768501 1.4754286 -2.6266532 2.4302158 2.633649 -2.6102817
-2.5391707 2.7045228 -2.7443779 2.5702052 2.495583 -1.8867583 -2.0787656 1.8652487
-2.356132 2.2619858 -2.1208735 1.9816257 -1.833821 -1.8829168 -1.8869534 -1.2495548
2.2863498 2.1942391 2.3758268 -1.5475693 0.09543734 2.198128 -1.7350285 -2.56694
-2.1739151 1.6468946 -0.954024 -3.3842435 2.5760157 3.0208225 1.6585251 1.4073731
-3.6430116 -2.8677511 2.558425 2.4058695 2.416026 -2.5648673 -1.8828152 -2.0972416
-1.8412175 2.6191967 -2.6595068 1.8943487 2.196499 -2.7212732 -1.9047433 2.0766997
00000000: 8c04 2440 ef32 20c0 7ae4 1ec0 2f84 2040
00000010: 15bf 1640 9610 9fbf d604 2bc0 c9b5 f2bf
00000020: cf01 1340 d89c abbf 99e6 1fc0 6085 03c0
00000030: d035 1c40 a67a d4bf 87ed d2bf 1c17 9b3f
00000040: 6a18 a6bf 5729 ba3f 87d3 0ec0 5df0 f13f
00000050: 1a13 bbbf 9686 1f40 c8b9 48be fff7 1fc0
00000060: 9c94 13c0 1f73 0440 076c 22c0 aeda e13f
00000070: fa7c 21c0 2db7 2b40 ee87 10c0 a51d 05c0
00000080: e800 3540 0f38 26c0 427a 0d40 7a14 2140
00000090: a7bb 1ec0 05ca 01c0 a06a 413e 8507 0bc0
000000a0: 9485 2440 83ca a53f 9494 c52c 8185 cdad
000000b0: 24bc 71ac e524 a2ac 477b a6ac 681e c0ad
000000c0: 085f deac 6caa 19c0 89f9 96bf dda0 2d40
000000d0: 5891 3140 8cbd 2ac0 6b5e 33c0 1ff3 1d40
000000e0: 7807 e8bf f0c1 2bc0 501e 18c0 d8da bc3f
000000f0: 161b 28c0 a888 1b40 b58d 2840 db0e 27c0
00000100: c681 22c0 e716 2d40 e3a3 2fc0 3e7e 2440
00000110: a2b7 1f40 4c81 f1bf 7f0a 05c0 78c0 ee3f
00000120: deca 16c0 60c4 1040 64bc 07c0 e9a5 fd3f
00000130: a6ba eabf 6b03 f1bf b087 f1bf 69f1 9fbf
00000140: 8e53 1240 6a6e 0c40 8c0d 1840 c016 c6bf
00000150: a774 c33d 21ae 0c40 6a15 debf bf48 24c0
00000160: 6d21 0bc0 71cd d23f eb3a 74bf 7297 58c0
00000170: 71dd 2440 2855 4140 8d4a d43f cd24 b43f
00000180: 1a27 69c0 3c89 37c0 3cbd 2340 c4f9 1940
00000190: 2ca0 1a40 c926 24c0 1700 f1bf 3539 06c0
000001a0: 04ad ebbf eba0 2740 5c35 2ac0 057a f23f
000001b0: 7193 0c40 5729 2ec0 a1ce f3bf a6e8 0440

bias f4 [7]
0.41817573 0.38117233 -0.073666215 -0.30394626 0.6154245 -0.35197347 -0.043731794
00000000: 211b d63e 0529 c33e 50de 96bd d89e 9bbe
00000010: 768c 1d3f de35 b4be 1c20 33bd
